…
625/625 [==============================] - 3s 5ms/step - loss: 0.3880 - accuracy: 0.8254 - val_loss: 0.4446 - val_accuracy: 0.7941
Epoch 17/30
625/625 [==============================] - 3s 5ms/step - loss: 0.3833 - accuracy: 0.8296 - val_loss: 0.4441 - val_accuracy: 0.7957
Model: "model"
__________________________________________________________________________________________________
 Layer (type)                   Output Shape         Param #     Connected to
==================================================================================================
 input_1 (InputLayer)           [(None, 384)]        0           []

 dense (Dense)                  (None, 384)          147840      ['input_1[0][0]']

 dropout (Dropout)              (None, 384)          0           ['dense[0][0]']

 add (Add)                      (None, 384)          0           ['input_1[0][0]',
                                                                  'dropout[0][0]']

 dense_1 (Dense)                (None, 384)          147840      ['add[0][0]']

 dense_2 (Dense)                (None, 384)          147840      ['dense_1[0][0]']

 add_1 (Add)                    (None, 384)          0           ['add[0][0]',
                                                                  'dense_2[0][0]']

 dense_3 (Dense)                (None, 300)          115500      ['add_1[0][0]']

 dense_4 (Dense)                (None, 100)          30100       ['dense_3[0][0]']

 concatenate (Concatenate)      (None, 484)          0           ['add_1[0][0]',
                                                                  'dense_4[0][0]']

 dense_5 (Dense)                (None, 1)            485         ['concatenate[0][0]']

==================================================================================================
Total params: 589,605
Trainable params: 589,605
Non-trainable params: 0
__________________________________________________________________________________________________
Epoch 0: Training loss = 0.6702824831008911
Epoch 1: Training loss = 0.5746653079986572
Epoch 2: Training loss = 0.4772354066371918
…
