…
625/625 [==============================] - 3s 5ms/step - loss: 0.3289 - accuracy: 0.8621 - val_loss: 0.3910 - val_accuracy: 0.8363
Epoch 21/30
625/625 [==============================] - 3s 5ms/step - loss: 0.3267 - accuracy: 0.8633 - val_loss: 0.3907 - val_accuracy: 0.8371
Model: "model"
__________________________________________________________________________________________________
 Layer (type)                   Output Shape         Param #     Connected to
==================================================================================================
 input_1 (InputLayer)           [(None, 500)]        0           []

 dense (Dense)                  (None, 500)          250500      ['input_1[0][0]']

 dropout (Dropout)              (None, 500)          0           ['dense[0][0]']

 dense_1 (Dense)                (None, 400)          200400      ['dropout[0][0]']

 dense_2 (Dense)                (None, 300)          120300      ['dense_1[0][0]']

 dense_3 (Dense)                (None, 200)          60200       ['dense_2[0][0]']

 dense_4 (Dense)                (None, 100)          20100       ['dense_3[0][0]']

 concatenate (Concatenate)      (None, 600)          0           ['input_1[0][0]',
                                                                  'dense_4[0][0]']

 dense_5 (Dense)                (None, 1)            601         ['concatenate[0][0]']

==================================================================================================
Total params: 652,101
Trainable params: 652,101
Non-trainable params: 0
__________________________________________________________________________________________________
Epoch 0: Training loss = 0.711698591709137
Epoch 1: Training loss = 0.5986895561218262
Epoch 2: Training loss = 0.4797225594520569
…
625/625 [==============================] - 3s 4ms/step - loss: 0.3341 - accuracy: 0.8577 - val_loss: 0.3829 - val_accuracy: 0.8395
Epoch 19/30
625/625 [==============================] - 3s 4ms/step - loss: 0.3299 - accuracy: 0.8601 - val_loss: 0.3870 - val_accuracy: 0.8415
Epoch 20/30
625/625 [==============================] - 3s 4ms/step - loss: 0.3263 - accuracy: 0.8618 - val_loss: 0.3844 - val_accuracy: 0.8431
Model: "sequential"
_________________________________________________________________
 Layer (type)                Output Shape              Param #
=================================================================
 dense (Dense)               (None, 500)               250500

 dropout (Dropout)           (None, 500)               0

 dense_1 (Dense)             (None, 400)               200400

 dense_2 (Dense)             (None, 300)               120300

 dense_3 (Dense)             (None, 200)               60200

 dense_4 (Dense)             (None, 100)               20100

 dense_5 (Dense)             (None, 1)                 101

=================================================================
Total params: 651,601
Trainable params: 651,601
Non-trainable params: 0
_________________________________________________________________
Epoch 0: Training loss = 0.6734841465950012
Epoch 1: Training loss = 0.5739713311195374
Epoch 2: Training loss = 0.4780489206314087
Epoch 3: Training loss = 0.44477617740631104
Epoch 4: Training loss = 0.42227283120155334
…
625/625 [==============================] - 3s 4ms/step - loss: 0.3159 - accuracy: 0.8665 - val_loss: 0.3953 - val_accuracy: 0.8371
Epoch 24/30
625/625 [==============================] - 3s 4ms/step - loss: 0.3085 - accuracy: 0.8699 - val_loss: 0.3913 - val_accuracy: 0.8377
Model: "model"
__________________________________________________________________________________________________
 Layer (type)                   Output Shape         Param #     Connected to
==================================================================================================
 input_1 (InputLayer)           [(None, 500)]        0           []

 dense (Dense)                  (None, 500)          250500      ['input_1[0][0]']

 dropout (Dropout)              (None, 500)          0           ['dense[0][0]']

 dense_1 (Dense)                (None, 400)          200400      ['dropout[0][0]']

 dense_2 (Dense)                (None, 300)          120300      ['dense_1[0][0]']

 dense_3 (Dense)                (None, 200)          60200       ['dense_2[0][0]']

 dense_4 (Dense)                (None, 500)          100500      ['dense_3[0][0]']

 add (Add)                      (None, 500)          0           ['input_1[0][0]',
                                                                  'dense_4[0][0]']

 dense_5 (Dense)                (None, 1)            501         ['add[0][0]']

==================================================================================================
Total params: 732,401
Trainable params: 732,401
Non-trainable params: 0
__________________________________________________________________________________________________
Epoch 0: Training loss = 0.6913565397262573
Epoch 1: Training loss = 0.5852197408676147
Epoch 2: Training loss = 0.4818977117538452
…
625/625 [==============================] - 2s 4ms/step - loss: 0.3323 - accuracy: 0.8621 - val_loss: 0.3833 - val_accuracy: 0.8445
Epoch 24/30
625/625 [==============================] - 2s 4ms/step - loss: 0.3278 - accuracy: 0.8620 - val_loss: 0.3831 - val_accuracy: 0.8433
Model: "model"
__________________________________________________________________________________________________
 Layer (type)                   Output Shape         Param #     Connected to
==================================================================================================
 input_1 (InputLayer)           [(None, 500)]        0           []

 dense (Dense)                  (None, 500)          250500      ['input_1[0][0]']

 dropout (Dropout)              (None, 500)          0           ['dense[0][0]']

 dense_1 (Dense)                (None, 500)          250500      ['dropout[0][0]']

 add (Add)                      (None, 500)          0           ['input_1[0][0]',
                                                                  'dense_1[0][0]']

 dense_2 (Dense)                (None, 1)            501         ['add[0][0]']

==================================================================================================
Total params: 501,501
Trainable params: 501,501
Non-trainable params: 0
__________________________________________________________________________________________________
Epoch 0: Training loss = 0.703596830368042
Epoch 1: Training loss = 0.6092506051063538
Epoch 2: Training loss = 0.5367544293403625
…
