…
157/157 [==============================] - 2s 11ms/step - loss: 0.3003 - accuracy: 0.8737 - val_loss: 0.4978 - val_accuracy: 0.7723
Epoch 6/30
157/157 [==============================] - 2s 11ms/step - loss: 0.2639 - accuracy: 0.8891 - val_loss: 0.5415 - val_accuracy: 0.7584
Epoch 7/30
157/157 [==============================] - 2s 12ms/step - loss: 0.2282 - accuracy: 0.9095 - val_loss: 0.5563 - val_accuracy: 0.7658
Model: "sequential"
_________________________________________________________________
 Layer (type)                Output Shape              Param #
=================================================================
 dense (Dense)               (None, 500)               192500

 dropout (Dropout)           (None, 500)               0

 dense_1 (Dense)             (None, 400)               200400

 dense_2 (Dense)             (None, 300)               120300

 dense_3 (Dense)             (None, 200)               60200

 dense_4 (Dense)             (None, 100)               20100

 dense_5 (Dense)             (None, 1)                 101

=================================================================
Total params: 593,601
Trainable params: 593,601
Non-trainable params: 0
_________________________________________________________________
Epoch 0: Training loss = 0.6080584526062012
Epoch 1: Training loss = 0.41353556513786316
Epoch 2: Training loss = 0.37176552414894104
Epoch 3: Training loss = 0.333913654088974
Epoch 4: Training loss = 0.30029913783073425
…
